Dixi_model.tflite (tflite, 742232 bytes, 16 tensors)

sequential_2/dense_1/BiasAdd/ReadVariableOp/resource f4 [6]
0	0x3d1201a9	0.035646114
1	0x3e86955a	0.2628582
2	0xbe46ab80	-0.1940136
3	0xbd45c45e	-0.048282973
4	0x3e07837d	0.13233753
5	0xbea77f9d	-0.3271455

sequential_2/dense/BiasAdd/ReadVariableOp/resource f4 [64]
0	0xbd74b2b4	-0.059740737
1	0xbd346ae9	-0.04404727
2	0xbe18d196	-0.149237
3	0x3dd6509d	0.104645945
4	0x3a9266bc	0.0011169533
5	0x3e5b37b4	0.21407968
6	0x3de11fd6	0.109924
7	0xbd297f3d	-0.04138111
8	0x3de27ea2	0.110593095
9	0xbde240b2	-0.11047496
10	0x3e843f77	0.2582967
11	0x3e236f24	0.15960366
12	0xbd2398a6	-0.0399405
13	0x3e322fdc	0.1740107
14	0xbe0a7435	-0.13520892
15	0xbd4a99f2	-0.04946322
16	0x3e56563d	0.20931335
17	0x3eebf652	0.46086365
18	0x3e07bae2	0.13254884
19	0x3e44de09	0.19225325
20	0xbd5c834e	-0.05383616
21	0x3ec91c24	0.39279282
22	0xbcb8a27a	-0.022538412
23	0xbd91abc5	-0.071128406
24	0xbce6b5a5	-0.028162787
25	0xbc846c84	-0.016165026
26	0x3e83eb7c	0.25765598
27	0x3dae00f8	0.084962785
28	0xbe85c2b5	-0.26125112
29	0xbd776792	-0.060401507
30	0x3deb21c4	0.1148105
31	0x3e01e47c	0.12684816
32	0xbe2cec8d	-0.16887112
33	0x3c893b3f	0.016751884
34	0xbe967039	-0.29382494
35	0xbe0de1e2	-0.13855699
36	0xbd41a269	-0.047274027
37	0x3e314fe2	0.17315629
38	0x3dff6d48	0.124720156
39	0xbdbd64b4	-0.09247723
40	0xbdd291cf	-0.10281717
41	0xbdebb9d5	-0.11510054
42	0xbd83b226	-0.064304635
43	0xbcc87314	-0.024468936
44	0x3e700bdd	0.23442025
45	0x3e5804f1	0.21095635
46	0xbd8e2a96	-0.069417164
47	0xbd90c240	-0.070683
48	0x3d94ff97	0.072753124
49	0xbd90837e	-0.0705633
50	0x3dabd7a8	0.083907425
51	0xbd607794	-0.05480154
52	0xbe32f1d7	-0.17475067
53	0xbe420d66	-0.18950424
54	0xbd6da3b1	-0.058017436
55	0xbde42e95	-0.11141697
56	0xbe3ffd96	-0.18749079
57	0x3d8766a8	0.06611377
58	0x3e111595	0.14168389
59	0x3dd4ca5a	0.10390158
60	0xbe6eaa5b	-0.23307173
61	0x3ebb8737	0.36626598
62	0x3d75e81c	0.06003581
63	0x3d532ce3	0.05155648

sequential_2/conv2d_5/BiasAdd/ReadVariableOp/resource f4 [64]
0	0xbd56971c	-0.052390203
1	0xbddc67d7	-0.107619934
2	0xbd8491ec	-0.06473145
3	0x3dacdaa5	0.08440141
4	0x3d5c70aa	0.053818382
5	0xbc6e5242	-0.014545979
6	0x3d0efd88	0.034909755
7	0x3bbda3d1	0.0057873507
8	0x3d310518	0.04321775
9	0x3d897926	0.0671256
10	0x3e1006b7	0.14065062
11	0x3db852f5	0.09000198
12	0xbd2edbc7	-0.042690065
13	0x3e189104	0.14899069
14	0xbd816f28	-0.063200295
15	0xbd1dcd1b	-0.038525682
16	0xbd3e2542	-0.04642225
17	0x3e00c1ba	0.12573901
18	0xbe1246b9	-0.14284791
19	0xbe01006b	-0.12597816
20	0xbdb4cf94	-0.08828655
21	0xbdad5f9a	-0.084655
22	0x3d9eabb4	0.077475935
23	0xbd408be5	-0.047008414
24	0xbdc29712	-0.095014706
25	0x3c3d2426	0.011544263
26	0xbdb8db0e	-0.09026156
27	0x3db4e7bc	0.08833262
28	0xbce64e76	-0.028113585
29	0x3e7e50f3	0.24835567
30	0x3c4a3a47	0.012342996
31	0xbd862071	-0.065491565
32	0x3e93371e	0.2875299
33	0x3b62f643	0.0034631647
34	0x3dcd0442	0.10010578
35	0x3e687a80	0.2270298
36	0xbd24eb36	-0.040263377
37	0xbc6b24b8	-0.014352016
38	0xbd649815	-0.0558091
39	0xbda81b31	-0.08208311
40	0xbe560290	-0.20899415
41	0xbdc6eca6	-0.09713106
42	0xbe7593d1	-0.23982169
43	0x3e741571	0.23836304
44	0x3ebb6e25	0.3660747
45	0x3e45d881	0.19320871
46	0xbdcf8eba	-0.10134645
47	0x3e80a225	0.25123706
48	0x3b5b8581	0.0033496323
49	0x3d622b19	0.055216882
50	0x3e401316	0.1875728
51	0x3d81b076	0.063324854
52	0xbd4d04cd	-0.050053407
53	0xbd324bc0	-0.043529272
54	0x3b20a7a0	0.0024513975
55	0x3eb9da65	0.36299434
56	0xbd3a31e6	-0.045457743
57	0xbd994c14	-0.07485214
58	0x3def140e	0.11673747
59	0xbebed39b	-0.37270817
60	0x3e164dc1	0.14678098
61	0x3e47d69e	0.19515464
62	0xbd94f506	-0.07273297
63	0xbe1879e1	-0.14890243

sequential_2/conv2d_4/BiasAdd/ReadVariableOp/resource f4 [64]
0	0xbe1cf5d4	-0.15328151
1	0x3e24b6e9	0.160854
2	0xbc114c7d	-0.008868334
3	0x3d2e83c7	0.04260614
4	0xbca73401	-0.02041054
5	0x3a3f3bf9	0.00072950084
6	0xbd44d0b2	-0.04805059
7	0x3dfbc201	0.12292863
8	0x3e23369b	0.15938799
9	0xbccda948	-0.025105134
10	0xbe41cb5a	-0.18925229
11	0xbd9c0bf2	-0.07619466
12	0x3e02fe2d	0.12792273
13	0xbcab39e6	-0.020901632
14	0xbe2dabc5	-0.16960056
15	0xbcaddcd1	-0.021223458
16	0x3e93f81e	0.28900236
17	0xbdccae23	-0.099941514
18	0xbdf44c49	-0.11928613
19	0x3c8e37df	0.017360626
20	0x3c529337	0.012852482
21	0xbdc7763e	-0.0973935
22	0xbe06b28e	-0.1315405
23	0x3e487b34	0.19578248
24	0x3e4f4366	0.20240554
25	0xbd02d2cc	-0.031939313
26	0x3e47c473	0.19508533
27	0x3d4d88ec	0.050179407
28	0xbb996a61	-0.004681871
29	0xbe1ecc63	-0.15507655
30	0x3e7daec9	0.24773706
31	0x3e4d4fae	0.20049927
32	0xbdb26284	-0.087101966
33	0xbdbcc4c7	-0.0921722
34	0xbe00ae9a	-0.12566605
35	0x3e4375be	0.19087884
36	0xbe2a06bb	-0.1660413
37	0xbdc18cc9	-0.09450681
38	0xbe7465c6	-0.23866948
39	0xbd8dbe78	-0.06921095
40	0xbc1263c9	-0.008934923
41	0xbe9feb9b	-0.3123444
42	0x3e5dc9d1	0.21659018
43	0xbdf90026	-0.121582314
44	0xbd6d1b23	-0.057887208
45	0xbda77441	-0.081764705
46	0xbdddaebd	-0.10824344
47	0xbd0ed7b1	-0.034873668
48	0xbdb37f56	-0.08764522
49	0x3df6a827	0.12043791
50	0x3e27320a	0.16327682
51	0xbcdfe233	-0.02732954
52	0x3da4387f	0.08018588
53	0xbe014ea1	-0.12627651
54	0x3c793cb6	0.0152122285
55	0xbd9945d4	-0.07484022
56	0xbdf1b53a	-0.11802144
57	0xbd7b5eee	-0.06136983
58	0x3dad4c93	0.08461871
59	0xbd44852e	-0.047978573
60	0x3e031e83	0.12804608
61	0xbea03c0a	-0.31295806
62	0xbd827bc6	-0.06371264
63	0x3e4d8d3f	0.20073412

sequential_2/conv2d_3/BiasAdd/ReadVariableOp/resource f4 [64]
0	0xbdba96d9	-0.09110803
1	0xbd9a4740	-0.07533121
2	0x3d1ae19f	0.037812825
3	0xbc9e614c	-0.019333504
4	0xbe8b1407	-0.27163717
5	0xbd8bf674	-0.068341166
6	0xbe065464	-0.1311813
7	0x3c93be57	0.018035097
8	0x3d9ae43e	0.07563065
9	0xbdd01b1e	-0.10161422
10	0xbdaca457	-0.08429783
11	0x3dc75169	0.09732325
12	0xbe8f9421	-0.280427
13	0xbddf6405	-0.10907749
14	0x3deb2e8f	0.1148349
15	0xbd3a8560	-0.045537353
16	0xbcc47336	-0.023980718
17	0x3d1ee1e3	0.03878964
18	0xbdeca56c	-0.11554989
19	0x3d9b9824	0.07597378
20	0xbd886c4e	-0.066612825
21	0xbc614b48	-0.013750859
22	0xbe2c06a5	-0.1679941
23	0xbd2daf0b	-0.042403262
24	0x3d22db3f	0.03975987
25	0xbd0a196b	-0.033715647
26	0x3d46e1c3	0.048555147
27	0xbd466562	-0.04843653
28	0x3d96f4ca	0.073709086
29	0xbd79d409	-0.060993228
30	0xbdc775ce	-0.09739266
31	0xbe0b506e	-0.136049
32	0xbdbc4482	-0.09192754
33	0xbe84c602	-0.25932318
34	0xbdb5d070	-0.08877647
35	0x3e0c2439	0.13685693
36	0xbd33e944	-0.04392363
37	0xbdae993f	-0.08525323
38	0xbda78a2c	-0.08180651
39	0xbd7d9caf	-0.061917003
40	0xbd2c31fc	-0.042039856
41	0xbca3c6c8	-0.019992247
42	0x3dd5bc82	0.10436346
43	0x3c3b786a	0.011442283
44	0x3dd169ee	0.102252826
45	0xbd38db72	-0.045131154
46	0xbcb6d146	-0.022316586
47	0xbe17b630	-0.14815593
48	0x3e17e9c6	0.14835271
49	0xbd4273f6	-0.04747387
50	0x3bc06d20	0.0058723837
51	0xbd819c3e	-0.06328629
52	0x3d3a13eb	0.04542915
53	0xbd1b41b8	-0.03790447
54	0xbe3738b5	-0.17892726
55	0xbe6cf91a	-0.231419
56	0x3cfe1a30	0.031018347
57	0x3e1e5230	0.1546104
58	0x3de5367c	0.11192033
59	0xbe293369	-0.16523518
60	0x3cf9b4cb	0.030481717
61	0x3e317328	0.17329085
62	0x3e631c5a	0.22178784
63	0x3ddf0b38	0.10890812

sequential_2/conv2d_2/BiasAdd/ReadVariableOp/resource f4 [64]
0	0x3dfb0517	0.1225683
1	0x3dc69f26	0.09698324
2	0xbdabe5bc	-0.08393428
3	0xbceb6c09	-0.028738039
4	0xbd979e57	-0.07403248
5	0xbced1e1b	-0.02894502
6	0xbd08a53a	-0.033360697
7	0xbd732b74	-0.059367612
8	0xbd25f71b	-0.04051886
9	0xbd772d3c	-0.060345873
10	0xbc110302	-0.008850815
11	0xbbe7b3f9	-0.007071015
12	0xbd924fe2	-0.07144143
13	0xbd0d75e7	-0.03453627
14	0xbdf8dead	-0.12151847
15	0xbcf172fb	-0.029473772
16	0xbd9f58c1	-0.077806
17	0xbe4aab69	-0.1979195
18	0xbb2c9c6a	-0.0026338347
19	0xbdc8616e	-0.09784208
20	0xbecda835	-0.40167394
21	0x3cca553f	0.024698852
22	0xbe1eecc1	-0.15520002
23	0xbcb13fba	-0.021636833
24	0xbc8633b3	-0.016382074
25	0xbd9ebdbc	-0.07751033
26	0xbcf0615d	-0.029343301
27	0xbd51e40f	-0.051242884
28	0x3cca37a3	0.024684733
29	0xbdfba817	-0.1228792
30	0xbd846489	-0.06464488
31	0xbd995062	-0.07486035
32	0xbd6c7da4	-0.057737008
33	0x3c229253	0.009922582
34	0xbda1f60f	-0.0790826
35	0xbd938fff	-0.072051995
36	0xbd4ba3e3	-0.04971684
37	0xbd77e5f9	-0.060522053
38	0xbdb366e0	-0.08759856
39	0xbdad892d	-0.0847343
40	0x3cbf3fa1	0.02334577
41	0x3c044aed	0.008074504
42	0x3cdb10a8	0.02674134
43	0xbd58c259	-0.05291972
44	0xbd93271b	-0.07185193
45	0x3c0a2cb7	0.008433512
46	0xbcf6d347	-0.030130042
47	0xbd8869fc	-0.0666084
48	0xbd84ffdd	-0.064941145
49	0x3d9bb31a	0.0760252
50	0xbd5c46ac	-0.053778335
51	0xbdf9c502	-0.121957794
52	0xbbc06da4	-0.005872445
53	0x3c872525	0.016497204
54	0xbec48969	-0.38386086
55	0xbddd3ccf	-0.10802614
56	0xbd115883	-0.035484802
57	0xbe2c1361	-0.16804267
58	0xbe1a8d02	-0.15092853
59	0xbd41c640	-0.047308207
60	0xbb19d5ed	-0.0023473457
61	0x3d23f0e1	0.040024642
62	0xbdd90022	-0.105957285
63	0xbe5193a7	-0.20466481

sequential_2/conv2d_1/BiasAdd/ReadVariableOp/resource f4 [64]
0	0x3de0e5d0	0.10981333
1	0x3c371adb	0.011175836
2	0x3cef9fa1	0.029250922
3	0xbcd9390b	-0.026516458
4	0xbe1c4815	-0.15261872
5	0xbdc69620	-0.09696603
6	0x3d80c233	0.062870406
7	0x3cca97c8	0.024730578
8	0xbd86ab4f	-0.06575643
9	0xbd58984b	-0.052879613
10	0xbcee39ab	-0.029080233
11	0xbd45ca79	-0.048288796
12	0xbc361380	-0.011113048
13	0xbcf3b16c	-0.029747687
14	0xbdd167f5	-0.10224906
15	0xbdc9f8b1	-0.09861887
16	0xbcc7966b	-0.024363717
17	0xbdf32a58	-0.11873311
18	0xbe4beefd	-0.19915386
19	0xbe3e5ee4	-0.18590885
20	0xbd519515	-0.051167566
21	0xbcde9966	-0.027172755
22	0xbdc3ec8f	-0.09566604
23	0xbda74530	-0.08167493
24	0x3d1ac529	0.037785683
25	0xbc45233b	-0.012032325
26	0xbc39be20	-0.011336833
27	0xbdd4d0e4	-0.10391405
28	0xbd13c7ec	-0.036079332
29	0xbba07c56	-0.0048976345
30	0xbe1e1a18	-0.15439641
31	0xbe0a520e	-0.13507864
32	0xbe67e117	-0.22644459
33	0xbd7a8b72	-0.06116814
34	0xbd48e5b8	-0.049047202
35	0xbd387421	-0.045032624
36	0xbdcb3fc6	-0.09924273
37	0xbd528429	-0.05139557
38	0xbdf5701d	-0.119842745
39	0xbd22c6d3	-0.039740395
40	0xbd1ef18d	-0.03880458
41	0xbdb2f9f2	-0.087390795
42	0xbd8a94ba	-0.067666486
43	0xbe1d13a6	-0.15339527
44	0xbe5937bd	-0.21212669
45	0xbd3f5c08	-0.046718627
46	0xbde1d387	-0.11026674
47	0xbe44bcb6	-0.19212613
48	0xbd4d1f5e	-0.050078742
49	0xbc681e0e	-0.014167322
50	0xbe10d6ea	-0.14144483
51	0xbdee9c97	-0.11650961
52	0xbd1a5e06	-0.037687324
53	0xbd8e684a	-0.06953485
54	0xbe023eff	-0.12719344
55	0xbd5a6bb2	-0.053325363
56	0x3e320638	0.17385185
57	0x3d7b5fc0	0.06137061
58	0xbc9d54ed	-0.019205535
59	0xbd4a300f	-0.04936224
60	0x3c517f2c	0.012786668
61	0xbd98858c	-0.07447347
62	0xbc633a59	-0.013868892
63	0xbcab0abc	-0.020879142

sequential_2/conv2d/BiasAdd/ReadVariableOp/resource f4 [32]
0	0xbbd6352d	-0.0065371008
1	0xbd21284e	-0.03934508
2	0xbd85bf48	-0.06530625
3	0x3d09b2ea	0.03361789
4	0x3ccb9f26	0.024856161
5	0x3db94ac7	0.09047466
6	0xbda35664	-0.07975462
7	0xbd8cbc0c	-0.068718046
8	0xbd58a18d	-0.05288844
9	0x3deb18fc	0.11479375
10	0xbd398fbb	-0.045303088
11	0x3a7540c4	0.0009355659
12	0x3c5a36b3	0.013318705
13	0xbda64f62	-0.0812061
14	0xbc9f49e3	-0.019444412
15	0xbd1f8d43	-0.038953077
16	0xbdd2500f	-0.10269176
17	0x3d479511	0.048726145
18	0xbd7838e7	-0.06060114
19	0xbb80f6fb	-0.0039356924
20	0x3b2e5642	0.0026601707
21	0x3c22c51f	0.009934693
22	0xbc4e022f	-0.012573763
23	0x3d429325	0.04750361
24	0x3ba7c2f7	0.005119677
25	0xbd3bcdba	-0.045850493
26	0xbcb608d0	-0.022220999
27	0xbd378143	-0.044801008
28	0xbcb55c3e	-0.022138711
29	0xbcdf0562	-0.027224246
30	0x3d65d7b5	0.056113917
31	0xbbab1e5f	-0.0052221264

sequential_2/dense/MatMul f4 [64, 256]
0	0x3d7a5fef	0.061126646
1	0x3e1ff40c	0.1562044
2	0x3dcbdff7	0.09954827
3	0xbed6bbc1	-0.4194012
4	0x3d50498c	0.05085139
5	0x3df54853	0.119766854
6	0xbcf0eb3c	-0.029409043
7	0xbdd48b12	-0.10378088
8	0xbe04549b	-0.129229
9	0xbdf28b2e	-0.11842953
10	0x3e3f34f6	0.18672547
11	0x3d6cc01c	0.057800397
12	0x3c875941	0.016522052
13	0xbe1ec9cb	-0.15506665
14	0xbe2d1d49	-0.16905703
15	0x3e07f7a4	0.13278061
16	0x3e5b8e6b	0.21441047
17	0xbdd777d3	-0.105209015
18	0xbdd3e0f4	-0.10345641
19	0xbe2378cc	-0.15964049
20	0xbdd95441	-0.10611773
21	0xbdb79214	-0.08963409
22	0xbe2e8d07	-0.17045985
23	0x3c4fd1db	0.012684311
24	0xbdf9a4cb	-0.12189635
25	0xbd7d221d	-0.06180011
26	0xbdfa8ff1	-0.12234486
27	0x3c3ea510	0.011636034
28	0x3e4d728e	0.2006323
29	0xbd4f72e1	-0.050646666
30	0x3b88be6e	0.0041730916
31	0xbd4a8152	-0.049439736
32	0xbd8d6f90	-0.069060445
33	0xbe7ff08c	-0.24994105
34	0x3d614b93	0.055003714
35	0x3dcee215	0.101017155
36	0xbec20c7b	-0.37900147
37	0xbe1229ed	-0.14273806
38	0x3d278720	0.04090035
39	0x3e0625ce	0.13100359
40	0xbe417cf4	-0.18895322
41	0xbde8c2fa	-0.11365314
42	0x3e3b5ded	0.18297549
43	0xbeaace06	-0.33360308
44	0xbe067f29	-0.13134445
45	0x3de4489f	0.11146664
46	0xbd39ec00	-0.045391083
47	0xbea084c2	-0.31351286
48	0xbdca7614	-0.09885803
49	0x3e21c441	0.15797521
50	0x3b8134ef	0.0039430778
51	0xbec04f83	-0.37560663
52	0x3e8faaa0	0.28059864
53	0xbdd36b20	-0.10323167
54	0xbe1b8159	-0.15186061
55	0xbdcd55f6	-0.100261614
56	0xbda2b55e	-0.07944749
57	0xbbd47502	-0.006483675
58	0xbea3a953	-0.31965122
59	0xbdaba3d4	-0.08380857
60	0xbe480af0	-0.19535422
61	0x3d4e99ed	0.050439764
62	0xbbbda8b7	-0.0057879346
63	0x3df115cf	0.11771738
64	0xbde9b2db	-0.11411067
65	0xbd3b5b30	-0.04574126
66	0xbdb4975a	-0.088179305
67	0xbe97ca69	-0.29646614
68	0xbd4427ba	-0.04788945
69	0x3e7a769e	0.24459311
70	0x3db185ae	0.086680755
71	0x3ceebb98	0.029142186
72	0xbe537ebe	-0.20653817
73	0x3d0d53f6	0.0345039
74	0x3e0e5273	0.1389864
75	0xbd29f13c	-0.041489825
76	0x3dcc9f62	0.09991337
77	0x3d9c652c	0.076364845
78	0x3dd15ae0	0.10222411
79	0xbdb1bb1a	-0.08678265
80	0xbe845b10	-0.25850725
81	0xbe1d55b6	-0.15364727
82	0xbdc205bc	-0.0947375
83	0xbe69de66	-0.22838745
84	0x3dba5f3b	0.09100195
85	0xbd5cc4ab	-0.053898495
86	0xbdb66b4c	-0.08907184
87	0xbd651693	-0.05592973
88	0xbe6165fc	-0.2201156
89	0x3bb5f68c	0.0055530723
90	0x3db2de38	0.08733791
91	0xbd472604	-0.04862024
92	0x3eeb1581	0.45914844
93	0xbde2d161	-0.11075092
94	0xbd9f878d	-0.07789526
95	0x3dc1e6e9	0.09467871
96	0x3e42d641	0.19027044
97	0xbeab63ff	-0.33474728
98	0xbd1b9467	-0.037983324
99	0xbce73bda	-0.028226782
100	0xbe1550de	-0.1458163
101	0xbdc572b8	-0.096410215
102	0xbda77bc3	-0.081779025
103	0x3d0a5d4d	0.033780385
104	0xbe515ae6	-0.20444831
105	0x3dba7152	0.091036454
106	0xbb72c894	-0.0037045823
107	0xbf04fc7e	-0.5194777
108	0x3d53f5f2	0.051748224
109	0x3ca9eb2a	0.020742018
110	0xbc692928	-0.014231004
111	0xbdf7c113	-0.12097373
112	0xbe2814c4	-0.16414171
113	0x3c844daf	0.016150324
114	0xbe2e3320	-0.1701169
115	0xbef458c1	-0.47723964
116	0xbc7c1d7f	-0.015387892
117	0x3e530080	0.2060566
118	0xbcb6d1c6	-0.022316825
119	0xbe035d7f	-0.12828635
120	0xbde0f494	-0.109841496
121	0x3dfabac6	0.122426555
122	0xbe3acdee	-0.18242618
123	0xbd4cb5dd	-0.049978126
124	0xbeffd9a8	-0.49970746
125	0x3c7e2e31	0.015513943
126	0x3dc0a9d9	0.09407396
127	0xbdb753d1	-0.089515336
128	0xbd75e1e0	-0.060029864
129	0x3d844548	0.06458527
130	0x3dfe3583	0.1241255
131	0xbe7c457c	-0.24635881
132	0xbc9c1d58	-0.019056961
133	0x3e52109b	0.20514147
134	0x3ea3f829	0.3202527
135	0xbe8fdfde	-0.28100485
136	0x3cef895c	0.029240303
137	0x3d55359a	0.05205307
138	0xbd2c7291	-0.042101447
139	0x3d5f20e5	0.05447473
140	0x3d79f534	0.06102486
141	0x3db0d805	0.086349525
142	0x3c943f83	0.018096691
143	0xbdcddb67	-0.10051613
144	0xbcc834df	-0.024439273
145	0xbdd32896	-0.103104755
146	0x3e0419e5	0.12900503
147	0xbe92062c	-0.28520334
148	0xbd947905	-0.07249645
149	0x3dfe793e	0.12425469
150	0xbec40766	-0.38286895
151	0xbce13b62	-0.027494136
152	0x3b5f98e3	0.0034118227
153	0x3ea835a4	0.32853425
154	0x3cdfed9a	0.027334977
155	0x3d6206cb	0.05518226
156	0x3ed70879	0.41998652
157	0x3cb223fc	0.021745674
158	0x3e3eefd9	0.18646182
159	0xbdcbf20a	-0.09958275
160	0x3dc5a518	0.0965063
161	0xbe1995d7	-0.14998566
162	0xbdb7c975	-0.08973972
163	0xbe7978ab	-0.24362437
164	0x3e1c1f98	0.15246427
165	0xbdcf1d3e	-0.101129994
166	0xbd591a3e	-0.053003542
167	0xbdc33e87	-0.095334105
168	0xbea9b279	-0.33143976
169	0xbbd0ec40	-0.0063758194
170	0x3c128b3c	0.008944329
171	0xbdece042	-0.11566211
172	0x3d6c818f	0.057740744
173	0xbbcf641f	-0.006329074
174	0x3cdc2780	0.026874304
175	0xbde74ca4	-0.11293915
176	0xbd8d7e67	-0.06908875
177	0x3e4e91b3	0.20172767
178	0xbc172de6	-0.009227252
179	0x3e7a6b24	0.24454933
180	0x3daf6fd9	0.08566255
181	0x3dcb5457	0.09928196
182	0xbe1355a6	-0.14388141
183	0x3d737fcc	0.05944805
184	0xbe3690b1	-0.17828633
185	0x3b85ee37	0.0040872353
186	0xbdbd0389	-0.0922919
187	0xbdeb3201	-0.11484147
188	0xbd38a4e7	-0.045079138
189	0x3d9d667d	0.07685564
190	0xbc1056bd	-0.0088097425
191	0x3d07d4c5	0.033161897
192	0x3d4ac2be	0.049502127
193	0x3e42df4f	0.19030498
194	0xbd73c6be	-0.059515707
195	0xbe2a3a4d	-0.16623802
196	0x3cb8881d	0.022525841
197	0x3de2b713	0.11070075
198	0x3e326261	0.17420341
199	0xbd17ee64	-0.03709258
200	0xbd8c8c18	-0.06862658
201	0xbe2ed992	-0.17075184
202	0xbe749d8f	-0.23888229
203	0xbd06c0fe	-0.032898895
204	0xbdac4b50	-0.08412802
205	0x3cbcd057	0.023048563
206	0xbda77f28	-0.0817855
207	0x3d856efe	0.06515311
208	0x3d57f913	0.05272777
209	0x3cb416f1	0.021983596
210	0x3d44c7eb	0.04804222
211	0xbe566026	-0.20935115
212	0x3d4bbfc9	0.049743447
213	0xbdbae3cf	-0.09125482
214	0xbc7390fa	-0.014866108
215	0xbddd396a	-0.108019665
216	0xbcdf9c11	-0.027296098
217	0xbd5e30af	-0.054245647
218	0x3dae7d24	0.085199624
219	0x3def19b2	0.11674823
220	0x3eda8e89	0.4268687
221	0x3cd4b7f8	0.02596663
222	0x3dc8d594	0.09806362
223	0x3d735269	0.059404764
224	0x3d71b0c9	0.059006486
225	0xbe18ca4f	-0.14920925
226	0x3df510d5	0.11966101
227	0x3e3a6917	0.18204151
228	0xbe60d393	-0.21955709
229	0xbe6d49ca	-0.2317268
230	0x3e871fe0	0.26391506
231	0x3b019ca9	0.0019777215
232	0xbe8dcaac	-0.2769369
233	0x3c7da149	0.015480348
234	0xbcc88630	-0.024478048
235	0xbe9ccc9b	-0.30624852
236	0x3d89da2a	0.067310646
237	0xbd030176	-0.031983815
238	0x3e03090e	0.12796423
239	0xbe503b6a	-0.20335165
240	0xbd4c7eed	-0.049925733
241	0x3c954b23	0.018224305
242	0xbe4c173d	-0.1993074
243	0xbe98dacb	-0.29854426
244	0x3e00e2d8	0.12586534
245	0xbc44b558	-0.012006126
246	0x3e3334ae	0.17500564
247	0x3d4b740f	0.04967123
248	0x39c2646c	0.00037077384
249	0x3d8153b0	0.0631479
250	0xbeb413b2	-0.35171276
251	0x3df3fef5	0.119138636
252	0xbe50000e	-0.20312521
253	0xbe26c201	-0.16284944
254	0x3d063155	0.03276189
255	0xbd0fcd9e	-0.0351082

sequential_2/dense_1/MatMul f4 [6, 64]
0	0x3dcd8b27	0.10036307
1	0x3e5f8901	0.21829607
2	0xbd86241d	-0.06549857
3	0x3e21693d	0.15762801
4	0xbe4d7240	-0.20063114
5	0x3de63084	0.11239722
6	0xbf0b7cd9	-0.5448738
7	0x3d7de61c	0.061987028
8	0xbea055c2	-0.31315428
9	0x3e797290	0.24360108
10	0xbee090ce	-0.43860477
11	0xbed105f5	-0.40824857
12	0x3e54019d	0.2070374
13	0x3e605c0c	0.21910113
14	0x3e927cc7	0.28610823
15	0x3e24c42f	0.16090463
16	0x3de90d1b	0.11379453
17	0x3c9233a9	0.0178469
18	0xbee64936	-0.4497773
19	0xbe8f74e6	-0.28018874
20	0xbe1fc899	-0.15603866
21	0xbf025458	-0.5090995
22	0x3e1adb2b	0.15122668
23	0xbe582b39	-0.21110238
24	0x3dcda196	0.10040586
25	0x3e91ddf3	0.28489646
26	0xbcd9aa51	-0.026570471
27	0xbf37292f	-0.71547216
28	0x3e5910b9	0.21197785
29	0xbd8be9c8	-0.068316996
30	0xbe2878b4	-0.16452295
31	0xbe8086af	-0.25102755
32	0xbb588bfa	-0.0033042417
33	0x3e220f68	0.1582619
34	0x3e625ed0	0.2210648
35	0x3ddf4593	0.10901942
36	0x3c4e9b15	0.012610217
37	0x3e0bda41	0.13657476
38	0x3ca7e825	0.020496437
39	0x3e708403	0.23487858
40	0x3e3e2d55	0.1857198
41	0x3bb6b304	0.0055755395
42	0xbe785fe4	-0.2425533
43	0xbd80afdb	-0.06283542
44	0xbe999d65	-0.30002895
45	0xbd7a3dff	-0.06109428
46	0x3da3cb1e	0.07997726
47	0xbe70d165	-0.23517378
48	0x3ced349f	0.028955756
49	0x3d2ad029	0.041702423
50	0xbe9694fb	-0.29410538
51	0x3de6a1df	0.11261343
52	0x3c96805b	0.018371752
53	0x3e1df106	0.15423974
54	0xbd2baec1	-0.041914705
55	0x3e2ade12	0.16686276
56	0xbc0cbf5c	-0.0085905455
57	0xbe628d69	-0.22124256
58	0x3d99492c	0.074846596
59	0xbe04d784	-0.12972838
60	0x3e6765a4	0.22597367
61	0xbe17747b	-0.14790528
62	0xbd552018	-0.05203256
63	0xbe616710	-0.22011971
64	0xbe7d25b1	-0.2472141
65	0x3e4497a1	0.19198467
66	0xbec1459a	-0.37748414
67	0xbdeef4cd	-0.11667786
68	0x3dca99c6	0.09892611
69	0xbbdbfa02	-0.006713153
70	0xbe329983	-0.17441373
71	0xbe8db571	-0.2767749
72	0xbec99575	-0.3937184
73	0xbe8308c7	-0.25592634
74	0x3dac8621	0.084240206
75	0xbe56318b	-0.20917337
76	0x3dfcf663	0.12351682
77	0x3d7b621d	0.061372865
78	0xbe8056f8	-0.25066352
79	0x3e236933	0.15958099
80	0x3e6c6937	0.23087011
81	0x3e62f07c	0.2216205
82	0xbe3a9fe4	-0.18225056
83	0xbaa06ede	-0.0012240072
84	0xbd9ff314	-0.07810035
85	0x3dde550b	0.108560644
86	0xbe460338	-0.19337165
87	0x3df8eeec	0.12154946
88	0xbe9043c5	-0.28176704
89	0x3e8c57a1	0.27410606
90	0x3e47cf53	0.19512682
91	0x3e1ccb65	0.15311964
92	0x3d982f59	0.07430906
93	0x3ddc2bf1	0.10750569
94	0x3cb2e5cc	0.021838091
95	0x3e5afbe7	0.21385156
96	0xbe1f4d9f	-0.15556954
97	0xbeb688e3	-0.3565131
98	0xbdfd8141	-0.12378169
99	0xbe2a2603	-0.16616063
100	0x3e6a7867	0.22897492
101	0x3e67c8c1	0.22635175
102	0x3e354818	0.17703283
103	0xbdd1af78	-0.10238546
104	0xbe680123	-0.22656684
105	0x3d4d2e77	0.05009314
106	0xbe07de7f	-0.1326847
107	0xbe308c12	-0.17240933
108	0x3de46508	0.11152083
109	0x3e73fd46	0.23827085
110	0xbd137896	-0.03600367
111	0xbd81fc7d	-0.063469864
112	0xbe3f2d82	-0.18669704
113	0xbe8680b7	-0.26270077
114	0x3e0604ac	0.1308772
115	0xbe0ed69f	-0.13949059
116	0xbe731960	-0.23740149
117	0xbe9a683f	-0.30157658
118	0x3dc837c1	0.09776259
119	0x3df04047	0.1173101
120	0xbe1c75f6	-0.15279374
121	0xbef2130f	-0.47280166
122	0x3e2c807f	0.16845892
123	0x3e621565	0.22078474
124	0xbe131335	-0.14362796
125	0x3e720d8a	0.23637977
126	0x3e3a75ea	0.18209043
127	0x3db6cfc2	0.089263454
128	0x3e1eec65	0.15519865
129	0x3e5e0c3d	0.21684356
130	0xbe3870b3	-0.18011741
131	0x3e0211b6	0.12702069
132	0xbe98039d	-0.29690257
133	0x3d917092	0.07101549
134	0x3e70e22a	0.23523775
135	0xbd83f9f9	-0.06444163
136	0xbc913384	-0.01772476
137	0xbe5d1424	-0.21589714
138	0xbe943ac3	-0.28951082
139	0xbbf6f8ad	-0.0075369687
140	0xbece14cf	-0.4025025
141	0xbd814f03	-0.063138984
142	0x3e28ead8	0.16495836
143	0x3d510bf1	0.05103678
144	0x3e26bd1d	0.16283078
145	0xbe2adc74	-0.16685659
146	0xbe53d194	-0.20685416
147	0xbe911492	-0.28336006
148	0x3ced939b	0.029001048
149	0xbc8e4413	-0.017366445
150	0xbdc6113f	-0.09671258
151	0xbdc268ed	-0.09492669
152	0x3df9fac4	0.12206033
153	0xbbcf7bf5	-0.0063319155
154	0x3d2acb5b	0.04169784
155	0xbe58f438	-0.21186912
156	0x3e87fd73	0.26560554
157	0x3d1ee579	0.03879306
158	0x3e16869d	0.14699788
159	0x3e14397c	0.14475054
160	0x3e331841	0.17489721
161	0xbe8dfc07	-0.27731344
162	0x3e5c873a	0.2153596
163	0x3e3f0245	0.1865321
164	0xbcb37feb	-0.021911582
165	0x3df3137e	0.11868952
166	0xbd9ef633	-0.077618025
167	0xbe103076	-0.14080986
168	0x3d65b646	0.056082033
169	0x3e0e689e	0.13907096
170	0xbe420f04	-0.1895104
171	0x3d60b76d	0.05486243
172	0xbe6adda2	-0.22936109
173	0xbdcb9cab	-0.099419914
174	0xbd79a0c1	-0.060944322
175	0xbed54189	-0.41651562
176	0x3c6119fd	0.013739106
177	0x3e00a158	0.12561548
178	0xbecfb761	-0.40569595
179	0x3e333085	0.17498977
180	0x3dfb8225	0.122806825
181	0x3e0e04d5	0.13869031
182	0xbd6eea0b	-0.05832867
183	0xbe41a60b	-0.18910997
184	0x3d0dfcd8	0.03466496
185	0xbe009ac8	-0.12559044
186	0xbea51142	-0.3223973
187	0xbd881232	-0.066440955
188	0x3e552c18	0.20817602
189	0xbe965de4	-0.29368508
190	0x3d41197d	0.04714345
191	0xbd4276a1	-0.047476415
192	0xbdc61388	-0.09671694
193	0xbea8c62a	-0.32963687
194	0xbdcc5f76	-0.09979145
195	0x3e303daf	0.1721103
196	0xbddf50d9	-0.10904092
197	0xbe8027fd	-0.2503051
198	0x3ec32d00	0.3812027
199	0x3d0b45a6	0.03400197
200	0x3f0b7299	0.5447174
201	0xbdfc8c5f	-0.12331461
202	0x3d4082be	0.046999685
203	0x3df3819a	0.11889954
204	0x3d88f6ac	0.06687674
205	0xbf1b50a9	-0.6066995
206	0x3dba61e1	0.091007
207	0xbd69b0f2	-0.057053514
208	0xbe97b145	-0.29627433
209	0x3e216223	0.15760092
210	0xbebe89e8	-0.3721459
211	0x3e6542d6	0.22388777
212	0x3e0e1f04	0.13879019
213	0x3dd436d3	0.103620194
214	0xbe9242cd	-0.2856659
215	0xbe03790c	-0.12839144
216	0x3dbf9d7f	0.09356212
217	0xbd76b97a	-0.060235478
218	0xbd8e2a93	-0.06941714
219	0x3e01f5fc	0.12691492
220	0xbd9c477a	-0.076308206
221	0x3e892451	0.2678552
222	0x3d9069bb	0.070514165
223	0x3e711585	0.23543365
224	0xbdf438e9	-0.11924917
225	0xbe71b027	-0.23602353
226	0xbd4e1911	-0.050316874
227	0xbe99cf12	-0.30040795
228	0xbc18e17d	-0.009331104
229	0xbeb90f39	-0.36144426
230	0xbe61c6ae	-0.22048447
231	0xbc386cd0	-0.011256412
232	0xbeea5e23	-0.45774946
233	0xbe92a3a3	-0.2864047
234	0xbe948b95	-0.29012743
235	0xbd826e4a	-0.06368692
236	0x3e974cf2	0.29550892
237	0xbd766eff	-0.060164448
238	0x3d9cd0ba	0.07656999
239	0xbdf97b92	-0.12181772
240	0xbe761d6a	-0.24034658
241	0x3ec341af	0.3813605
242	0x3eb1a0ea	0.3469308
243	0xbe7a6738	-0.24453437
244	0x3e3335f8	0.17501056
245	0x3d2b122f	0.041765388
246	0x3e22dae3	0.15903811
247	0xbc5bf1ca	-0.013424346
248	0xbd2309ac	-0.039804146
249	0xbe6b6875	-0.22989066
250	0x3d35ee97	0.04441699
251	0xbeba4c42	-0.36386305
252	0xbdf327d1	-0.11872829
253	0x3e43b584	0.19112211
254	0x3d12ede7	0.035871413
255	0xbd877d44	-0.066156894

sequential_2/conv2d_1/Conv2D f4 [64, 3, 3, 32]
0	0x3d17adc5	0.037030954
1	0x3e117de8	0.14208186
2	0xbd6f8df4	-0.058484986
3	0x38877044	6.458213e-05
4	0xbd74fb60	-0.059810042
5	0xbd95473f	-0.0728898
6	0xbd95a8eb	-0.07307609
7	0xbe07a50e	-0.13246557
8	0x3c893cbb	0.016752591
9	0xbe656757	-0.22402702
10	0x3d9e90f3	0.077424906
11	0xbd9b5190	-0.07583916
12	0xbccb0807	-0.024784101
13	0x3d7b6afc	0.061381325
14	0x3dc5f1d0	0.09665263
15	0x3c6bdf2c	0.01439647
16	0xbf1dd618	-0.61654806
17	0x3d22c473	0.03973813
18	0xbd15d3a9	-0.036578808
19	0x3c875e68	0.016524509
20	0xbe136052	-0.14392212
21	0xbadc2e55	-0.0016798476
22	0xbd70e60d	-0.058813144
23	0xbd389cba	-0.04507134
24	0x3c212bdb	0.009837116
25	0xbc58440c	-0.013199817
26	0x3e2799fe	0.16367337
27	0xbe1f569b	-0.15560381
28	0xbdee8cd5	-0.11647955
29	0x3cf273d7	0.029596252
30	0xbe9ededa	-0.31029397
31	0xbe6d8845	-0.23196514
32	0x3c832300	0.0160079
33	0x3de3b0ac	0.11117682
34	0x3c8d4fe7	0.017250014
35	0x3cc94093	0.024566924
36	0xbdbb2ba9	-0.09139187
37	0x3d2d6ac1	0.042338137
38	0xbcecaaff	-0.028890131
39	0xbe37330c	-0.17890567
40	0x3d2c6831	0.042091552
41	0xbe24c0e6	-0.1608921
42	0x3c43005c	0.011901941
43	0xbd952228	-0.072819054
44	0xbe05d4dc	-0.1306948
45	0x3cdf8198	0.027283475
46	0xbd241f9b	-0.040069204
47	0x3d93fc27	0.072258286
48	0xbed0074b	-0.40630564
49	0x3db26e3c	0.08712432
50	0xbdfe3e5d	-0.124142386
51	0xbd706c11	-0.05869681
52	0xbe703743	-0.2345858
53	0x3d3e6214	0.046480253
54	0xbc8fe477	-0.017564995
55	0xbc28acd1	-0.010295109
56	0xbd2f48ee	-0.04279416
57	0xbd55aec4	-0.052168623
58	0x3e7ceeab	0.2470042
59	0xbdabc13a	-0.083864644
60	0x3d7e4b2d	0.062083412
61	0x3d35aedb	0.04435621
62	0xbe5980c6	-0.2124053
63	0xbe3a977d	-0.1822185
64	0x3c8a833a	0.016908277
65	0x3dc62ca0	0.0967648
66	0xbbd78ba2	-0.006577925
67	0xbc8d342a	-0.017236788
68	0xbd29b658	-0.041433662
69	0x3e927d84	0.28611386
70	0xbd8e8f56	-0.06960933
71	0xbe05d21b	-0.1306843
72	0x3cf49e29	0.029860573
73	0xbd9062ab	-0.070500694
74	0x3e0ec940	0.13943958
75	0xbddd4ef2	-0.10806073
76	0xbe16d195	-0.14728387
77	0xbbdd729b	-0.006758047
78	0x3cf81b94	0.030286588
79	0xbd4e9c00	-0.050441742
80	0xbed597bc	-0.41717327
81	0x3eab821a	0.33497697
82	0xbda2eafe	-0.079549775
83	0x3da7ddaf	0.0819658
84	0xbe933213	-0.2874914
85	0x3cf319fa	0.029675473
86	0x3cfcec8d	0.030874515
87	0xbdc908da	-0.098161414
88	0xbce708af	-0.028202383
89	0x3ba55139	0.005045083
90	0x3e43a7c3	0.19106965
91	0xbdbbe511	-0.0917455
92	0x3e2c6835	0.16836627
93	0xbd2411ca	-0.040056027
94	0xbe35d29f	-0.17756127
95	0xbe92cf56	-0.2867381
96	0x3c20355d	0.009778348
97	0x3e09b3b0	0.13447452
98	0xbcfc8100	-0.03082323
99	0xbce57e99	-0.028014468
100	0xbde093f7	-0.10965722
101	0xbd78674a	-0.06064538
102	0xbdb29dba	-0.0872149
103	0xbe4d67bc	-0.20059103
104	0x3c03a315	0.008034487
105	0xbe426afd	-0.18986125
106	0xbcdd6d13	-0.02702955
107	0xbd4ed856	-0.050499283
108	0xbd86cb85	-0.06581787
109	0x3c2dce17	0.010608218
110	0xbda256f2	-0.0792674
111	0xbd1a67c1	-0.037696604
112	0xbf234aec	-0.63786197
113	0xbde9caa8	-0.11415607
114	0xbdda4987	-0.106585555
115	0xbc8081c9	-0.015686886
116	0xbe049f65	-0.12951429
117	0xbd775b93	-0.060390066
118	0x3d335040	0.043777704
119	0xbd9b2774	-0.075758845
120	0xbd4bef11	-0.04978854
121	0xbd921bc4	-0.07134202
122	0x3dbf4397	0.093390636
123	0xbd71b9c0	-0.059015036
124	0x3cb7baf5	0.022428015
125	0x3d8144a1	0.06311918
126	0xbe8505a7	-0.25980875
127	0xbe111f81	-0.14172174
128	0xbc901c23	-0.017591542
129	0x3d9869b0	0.07442033
130	0x3ba3958f	0.004992194
131	0x3ca00b16	0.019536536
132	0xbd1a2730	-0.03763503
133	0xbdf0a99d	-0.11751101
134	0xbdacbffa	-0.08435054
135	0xbe3905bc	-0.18068594
136	0xbd297b7c	-0.04137753
137	0xbd8135e6	-0.063091084
138	0x3d93bb86	0.07213502
139	0xbd74ac1f	-0.05973446
140	0xbe29d54b	-0.16585271
141	0xbcadb8cc	-0.021206282
142	0x3cba3628	0.022730902
143	0x3cf010f3	0.029304957
144	0xbeb654d4	-0.35611594
145	0x3c862517	0.016375108
146	0xbe6f4ae9	-0.2336842
147	0x3d83f4f0	0.064432025
148	0xbed2621c	-0.41090477
149	0xbc383579	-0.011243218
150	0xbbbb9ed6	-0.005725722
151	0xbc38e0cf	-0.011284067
152	0xbd0f618a	-0.03500513
153	0x3baa3e35	0.005195404
154	0xbc3e9aa3	-0.011633548
155	0x3cce052e	0.025148954
156	0xbd8c4993	-0.06849971
157	0x3d83193f	0.064013
158	0xbdec484c	-0.11537227
159	0xbe4d6978	-0.20059764
160	0xbc93cc04	-0.018041618
161	0xbca0623b	-0.01957809
162	0xbc4f0ad0	-0.012636855
163	0xbda67fc9	-0.08129842
164	0xbdc28eab	-0.09499868
165	0x3d9cb843	0.07652333
166	0xbd94abfc	-0.07259366
167	0xbe4039ec	-0.18772095
168	0x3da00c77	0.078148775
169	0xbda2bebb	-0.07946535
170	0x3e110844	0.1416331
171	0xbd0446d6	-0.032294117
172	0xbd5c0af0	-0.05372137
173	0xbc092a7a	-0.008371944
174	0x3d58de39	0.052946303
175	0x3dc38c1a	0.095482066
176	0xbedba73a	-0.4290102
177	0x3da6367d	0.081158616
178	0xbd8e4b48	-0.069479525
179	0x3d8de7cc	0.06928977
180	0xbea40a0a	-0.3203891
181	0x3d3f305e	0.046676986
182	0xbd422b13	-0.04740436
183	0xbdecc6f5	-0.115613855
184	0xbdc444a7	-0.09583407
185	0xbce9819d	-0.028504187
186	0x3e293905	0.16525657
187	0x3c9e6b33	0.019338226
188	0x3e383001	0.17987062
189	0xbd5faf99	-0.054610822
190	0xbe431972	-0.19052675
191	0xbe9fd458	-0.31216693
192	0xbdc726e3	-0.09724214
193	0xbc0fc669	-0.008775332
194	0xbbf2e170	-0.007412128
195	0x3ce63025	0.028099129
196	0xbde8d725	-0.113691606
197	0xbd060f30	-0.032729328
198	0x3cdf87ce	0.027286436
199	0xbe1de1ef	-0.15418218
200	0xbc373f55	-0.011184533
201	0xbe0485c6	-0.12941656
202	0x3d0eaae4	0.034830943
203	0xbdae262d	-0.08503375
204	0xbe104ca8	-0.14091742
205	0xbd53530e	-0.05159288
206	0x3d1807fd	0.037116993
207	0xbc2cb3b3	-0.0105408905
208	0xbed071ec	-0.40711915
209	0xbe030a59	-0.12796916
210	0xbe49f0e3	-0.19720797
211	0xbd2d53ed	-0.042316366
212	0xbeba0a77	-0.3633611
213	0xbd63e116	-0.05563458
214	0x3d5a9cde	0.053372256
215	0xbc8ea596	-0.017412942
216	0xbdbd075d	-0.0922992
217	0xbd072932	-0.03299827
218	0x3d1cb6aa	0.03826014
219	0xbd241964	-0.040063277
220	0xbdda9256	-0.106724426
221	0x3dcb2d61	0.09920765
222	0xbe357af4	-0.17722684
223	0xbe0b89ac	-0.13626736
224	0xbc25ed4a	-0.010127375
225	0x3cdf84f5	0.027285079
226	0xbc4eac65	-0.012614344
227	0xbd003bb3	-0.031306934
228	0xbdebfe4c	-0.11523113
229	0xbbb849e8	-0.0056240447
230	0xbd69f0e7	-0.057114508
231	0xbdfb2df9	-0.12264628
232	0xbd70ef1a	-0.058821775
233	0xbe1182bb	-0.14210026
234	0x3d0caeb4	0.034346297
235	0xbde3d876	-0.11125271
236	0xbdc9df47	-0.0985704
237	0xbd33d3f2	-0.0439033
238	0x3babf15e	0.005247279
239	0x3c76f2a5	0.015072499
240	0xbf2b2788	-0.66857195
241	0x3cb3662d	0.021899307
242	0xbdb1b11f	-0.08676361
243	0xbbb6585d	-0.005564733
244	0xbecb141b	-0.39663777
245	0xbd849e05	-0.06475452
246	0xbcc5b3b8	-0.024133548
247	0x3dc67718	0.09690684
248	0xbdc30e9b	-0.0952427
249	0xbcfcc7dd	-0.030857021
250	0x3b7f833e	0.0038988139
251	0xbe0d4ecb	-0.13799588
252	0xbdb94cf4	-0.09047881
253	0x3df84cca	0.12124021
254	0xbdbc0a66	-0.09181671
255	0xbe1e8b77	-0.15482889

sequential_2/conv2d_2/Conv2D f4 [64, 3, 3, 64]
0	0xbe47d26d	-0.19513865
1	0x3dfbf384	0.12302306
2	0xbd8c8e94	-0.06863132
3	0x3e13f58b	0.14449136
4	0x3d0ac15c	0.033875808
5	0xbd69f908	-0.05712226
6	0xbcaffe7a	-0.021483649
7	0xbdd1eb29	-0.10249931
8	0xbe3cc393	-0.1843398
9	0xbdde296b	-0.108477436
10	0xbd1c3c1c	-0.038143262
11	0xbcd399ba	-0.025830138
12	0xbda81782	-0.08207609
13	0x3d4e6dbd	0.050397623
14	0x3bb4ca06	0.005517247
15	0xbd68ccc6	-0.056835912
16	0x3e0ec7bf	0.13943385
17	0xbd52e726	-0.05148997
18	0xbe910f8c	-0.28332174
19	0x3e335255	0.17511876
20	0x3d570d62	0.052502997
21	0xbcfbf678	-0.030757174
22	0x3defa35a	0.11701079
23	0xbcfa1f40	-0.03053248
24	0xbe1f2839	-0.15542687
25	0x3d4f2f75	0.050582368
26	0xbe9285f7	-0.28617832
27	0xbd752f0b	-0.059859317
28	0x3e27a1c2	0.163703
29	0x3e298af5	0.16556914
30	0x3d1c1f0e	0.038115554
31	0x3d97748f	0.07395279
32	0xbdb2396f	-0.08702361
33	0xbdb9059c	-0.09034273
34	0x3d3a8e6c	0.04554598
35	0x3e686c42	0.22697547
36	0x3cf913eb	0.030405005
37	0xbda79684	-0.081830055
38	0xbd475df9	-0.048673604
39	0x3d4b35a4	0.049611703
40	0xbd8621f6	-0.06549446
41	0x3e0b8efd	0.13628764
42	0xbe340bda	-0.17582646
43	0xbbeb43c8	-0.007179711
44	0x3e5a2166	0.21301803
45	0xbd96ebab	-0.07369169
46	0xbd383ef2	-0.044981904
47	0x3e5c3c0b	0.2150728
48	0xbdfad186	-0.12246995
49	0xbedda2aa	-0.43288165
50	0xbe2fd7b0	-0.17172122
51	0xbeae8223	-0.3408366
52	0xbe4f0e78	-0.20220363
53	0x3d0655f5	0.03279682
54	0x3b8e0ac1	0.004334778
55	0x3d2cf0f5	0.042221982
56	0xbc43ab5f	-0.0119427135
57	0xbc44cae7	-0.012011266
58	0xbdfc34d7	-0.12314766
59	0x3d08eda7	0.033429768
60	0x3d6565f6	0.05600544
61	0x3dbba798	0.09162825
62	0x3d88fd84	0.06688979
63	0x3cd7b373	0.026330685
64	0xbddd6db5	-0.108119406
65	0xbe14488e	-0.14480802
66	0xbe29651b	-0.16542475
67	0x3d986850	0.07441771
68	0xbb9061ff	-0.0044062133
69	0xbe2260e6	-0.15857276
70	0xbde051ad	-0.109530784
71	0xbe669cbd	-0.22520728
72	0x3e2e2e4f	0.17009853
73	0xbc3eb3d3	-0.011639553
74	0xbd053707	-0.03252318
75	0xbddddb5c	-0.10832855
76	0xbda90bf4	-0.08254233
77	0xbdb482e2	-0.088140264
78	0xbdb726fe	-0.08942984
79	0xbd552e34	-0.052046016
80	0xbd4629e5	-0.048379797
81	0xbd5837e0	-0.05278766
82	0x3dc681f7	0.096927576
83	0x3a716f67	0.00092100207
84	0xbd89251a	-0.0669653
85	0x3c07bd8d	0.0082849385
86	0xbd3bd290	-0.045855105
87	0xbecaa25a	-0.3957699
88	0xbe92b32c	-0.28652322
89	0xbe682607	-0.22670756
90	0xbe3d64f6	-0.18495545
91	0xbdba1349	-0.090857096
92	0xbd80e595	-0.06293789
93	0x3dd6209f	0.10455441
94	0x3c3dbefd	0.01158118
95	0xbe35a150	-0.17737317
96	0xbd884a0d	-0.06654749
97	0xbef9f823	-0.48822126
98	0x3d873a07	0.06602865
99	0x3e74cf49	0.23907198
100	0xbcb3646c	-0.02189847
101	0x3d1fcfe4	0.03901662
102	0xbe04a68d	-0.12954159
103	0xbd27af1e	-0.04093849
104	0xbd9b9b15	-0.07597939
105	0x3d98182e	0.07426487
106	0xbea40a05	-0.32038894
107	0x3d3a273b	0.04544757
108	0xbd44180a	-0.047874488
109	0x3d57968e	0.052633815
110	0xbd930eec	-0.071805805
111	0x3dc405b2	0.09571399
112	0xbe17c4fc	-0.14821237
113	0xbe974c7a	-0.29550534
114	0xbeadf37a	-0.3397482
115	0xbe64988e	-0.2232382
116	0xbe079d82	-0.13243678
117	0x3dc3ec42	0.09566547
118	0x3daa16bf	0.0830512
119	0x3cb96931	0.022633167
120	0xbd561257	-0.052263584
121	0xbc858495	-0.016298572
122	0xbdccdfab	-0.10003599
123	0xbe706f51	-0.23479964
124	0x3d451c5f	0.04812276
125	0xbc810e5c	-0.015753917
126	0xbd352ee5	-0.044234175
127	0xbf019a23	-0.5062582
128	0xbd22d6e5	-0.03975572
129	0xbdb979bf	-0.09056424
130	0xbe21eba2	-0.15812543
131	0xbe02dcab	-0.1277949
132	0x3da35e67	0.0797699
133	0xbeb22819	-0.34796217
134	0xbe2e0ef7	-0.16997896
135	0xbe63611e	-0.22205016
136	0x3e02233c	0.12708753
137	0xbd8a8f71	-0.067656405
138	0xbdd08d2b	-0.10183176
139	0xbd525714	-0.051352575
140	0xbe5ca857	-0.21548592
141	0xbdc6897c	-0.09694192
142	0x3de7fc8a	0.11327465
143	0x3e284319	0.16431846
144	0xbe468312	-0.19385937
145	0xbdd25063	-0.10269239
146	0x3d8559b7	0.065112524
147	0xbe4b4250	-0.19849515
148	0xbd01277a	-0.03153179
149	0xbcbef152	-0.02330843
150	0xbc50caad	-0.012743634
151	0xbd386dbd	-0.04502653
152	0xbe94bb9f	-0.29049394
153	0x3d738d19	0.059460733
154	0x3e288353	0.16456346
155	0xbdda3864	-0.10655287
156	0xbe4ca897	-0.19986187
157	0xbd75443a	-0.05987952
158	0x3df5a776	0.11994831
159	0xbe7f9bdb	-0.24961798
160	0xbe4e08af	-0.201205
161	0xbeeada71	-0.45869783
162	0xbab70dec	-0.0013965941
163	0xbc5cc4d3	-0.013474661
164	0x3d51d429	0.051227722
165	0x3db34320	0.087530375
166	0xbd87f984	-0.06639388
167	0x3d805a9b	0.062672816
168	0xbcc5d059	-0.0241472
169	0xbe02c3ff	-0.12770079
170	0xbdb93454	-0.09043184
171	0xbc956920	-0.018238604
172	0xbdbed1e8	-0.0931738
173	0x3dc9928c	0.09842405
174	0x3d07dd60	0.033170104
175	0x3e497364	0.19672924
176	0x3d91e70f	0.07124149
177	0xbe6d70ab	-0.2318751
178	0xbe9d3fa4	-0.30712616
179	0xbec39941	-0.3820286
180	0xbe295882	-0.1653767
181	0x3dd9f65e	0.10642694
182	0x3d89bfda	0.06726046
183	0x3d05132f	0.032488998
184	0xbcfea3ad	-0.031083906
185	0x3c36479a	0.01112547
186	0x3e310f35	0.17290957
187	0x3caf293a	0.021381963
188	0x3df10948	0.117693484
189	0xbdb1faac	-0.0869039
190	0x3e0c0203	0.13672642
191	0xbece9380	-0.4034691
192	0xbdf3bcab	-0.1190122
193	0x3d7737d0	0.06035596
194	0xbe24faff	-0.16111372
195	0xbdbbf87c	-0.09178254
196	0xbe376d02	-0.17912677
197	0xbd094501	-0.033513073
198	0xbde1818a	-0.11011036
199	0xbd7082b5	-0.058718402
200	0xbe018891	-0.12649752
201	0xbd8adf87	-0.06780916
202	0x3d057e92	0.03259141
203	0xbd7cf5b6	-0.061757766
204	0xbe031a97	-0.12803112
205	0x3d2ee694	0.042700365
206	0xbe289b77	-0.16465555
207	0x3b9cb542	0.00478235
208	0x3db4ded5	0.08831564
209	0xbdffc789	-0.1248923
210	0xbde2d43a	-0.11075635
211	0x3e0d5c83	0.13804822
212	0xbd130412	-0.035892554
213	0xbdbd92c8	-0.09256512
214	0xbdb7ad19	-0.08968563
215	0xbe5ffcf7	-0.21873842
216	0xbcaba492	-0.020952497
217	0xbeac2c42	-0.33627516
218	0xbe20355d	-0.15645356
219	0xbd38470b	-0.044989627
220	0x3dabb53a	0.083841756
221	0x3da925b5	0.08259145
222	0x3cbb0595	0.02282981
223	0xbd941929	-0.072313614
224	0xbca74abc	-0.020421378
225	0xbe054f07	-0.13018428
226	0x3c80f378	0.015741095
227	0x3e258e6c	0.16167611
228	0x3ea94a5b	0.3306454
229	0xbe0372de	-0.12836787
230	0xbcd97b4f	-0.026548056
231	0x3d36df36	0.044646464
232	0x3b0ef15d	0.0021811344
233	0x3d424fba	0.047439314
234	0xbe17c147	-0.14819823
235	0xbd09fc4a	-0.033687867
236	0xbd9e8299	-0.07739753
237	0xbdacac43	-0.08431294
238	0xba933510	-0.0011231024
239	0x3ba4f316	0.005033861
240	0xbd29b1ab	-0.041429203
241	0xbe78cc56	-0.24296698
242	0x3e2bf142	0.16791251
243	0xbe922333	-0.2854248
244	0xbe1c31fe	-0.15253446
245	0xbd1f6156	-0.038911186
246	0xbd353a84	-0.044245258
247	0x3d79b95a	0.06096778
248	0x3a8d2f72	0.0010771586
249	0xbcbd5bfe	-0.023115154
250	0xbe836e5e	-0.2567014
251	0xbd1924ac	-0.03738849
252	0x3d6ea8c9	0.058266435
253	0xbca29887	-0.019848121
254	0x3e8a42db	0.27004132
255	0xbed34336	-0.41262215

sequential_2/conv2d_3/Conv2D f4 [64, 3, 3, 64]
0	0x3caaf315	0.020867864
1	0x3e61aa40	0.22037601
2	0xbe550a20	-0.20804644
3	0xbe668743	-0.22512536
4	0xbc637491	-0.013882772
5	0xbe8ff324	-0.2811519
6	0x3d834ae2	0.06410767
7	0xbe2f55e6	-0.17122611
8	0x3d3092db	0.043108802
9	0xbe887489	-0.2665141
10	0xbdc8ba77	-0.0980119
11	0xbe558121	-0.2085004
12	0xbd9970b0	-0.074921966
13	0xbe826205	-0.25465408
14	0x3bd0eaf9	0.006375667
15	0xbe6d5dfd	-0.23180385
16	0xbbfe0110	-0.0077515915
17	0xbe72cd17	-0.23711048
18	0x3d12dfd4	0.03585799
19	0x3e00e13a	0.12585917
20	0xbba33076	-0.004980142
21	0xbe18fcf9	-0.14940251
22	0xbea5bc6a	-0.3237031
23	0xbdada51c	-0.08478758
24	0xbe081b6d	-0.13291712
25	0x3db593be	0.0886607
26	0x3b5c9373	0.0033657223
27	0xbda30fdf	-0.079620115
28	0xbe5b74df	-0.21431302
29	0xbda3ad31	-0.07992018
30	0xbe5690db	-0.20953695
31	0xbb876b2e	-0.00413265
32	0x3b817842	0.0039511034
33	0xbd048a13	-0.03235824
34	0x3de3e1bc	0.1112704
35	0x3d55940c	0.05214314
36	0xbf18add6	-0.5964025
37	0xbee33b86	-0.4438135
38	0x3d931618	0.071819484
39	0x3da7bbe4	0.08190134
40	0x3ad3c4d7	0.0016156685
41	0x3dbbc1b4	0.09167805
42	0xbd6e57a9	-0.058189068
43	0xbd6468ff	-0.055764195
44	0x3d7a45da	0.061101772
45	0xbdea7106	-0.11447339
46	0xbdb2e497	-0.08735006
47	0xbdbc19e4	-0.09184626
48	0x3d23850c	0.039921805
49	0x3ce4b06b	0.027916154
50	0xbd7ad478	-0.061237782
51	0x3d4156bd	0.04720186
52	0xbe749357	-0.2388433
53	0x3de352a1	0.110997446
54	0x3ddfe39c	0.10932085
55	0xbe075f69	-0.1321999
56	0x3cd453a8	0.025918797
57	0xbe0ac9e9	-0.13553585
58	0x3e0772f9	0.13227452
59	0xbe99c58c	-0.3003353
60	0xbd6a8ae3	-0.05726136
61	0xbdbaa438	-0.091133535
62	0xbe04e9aa	-0.12979761
63	0x3e671575	0.22566779
64	0xbde11ad5	-0.10991446
65	0x3e1b22e8	0.15150034
66	0xbdbb58a1	-0.09147764
67	0xbdd88d58	-0.10573834
68	0xbe9626fc	-0.29326618
69	0xbe499063	-0.19683985
70	0xbe4febaf	-0.2030475
71	0xbecf903d	-0.40539733
72	0xbd002a37	-0.03129026
73	0xbe0b181e	-0.13583419
74	0xbd15dea0	-0.036589265
75	0xbe442600	-0.19155121
76	0x3d5dad27	0.05412021
77	0xbdb812a4	-0.089879304
78	0xbe6ebcc5	-0.23314197
79	0xbe8de104	-0.27710736
80	0xbd2f8be4	-0.04285802
81	0xbea43182	-0.3206902
82	0xbc602d24	-0.013682637
83	0xbd6784bb	-0.056523066
84	0xbe7daba5	-0.24772508
85	0x3bb26360	0.0054439753
86	0xbed9ab4a	-0.42513496
87	0xbdd8fe6d	-0.10595403
88	0x3d51054b	0.05103044
89	0xbe112abd	-0.1417646
90	0x3d33cd23	0.043896805
91	0xbda7df71	-0.08196915
92	0xbdfc4984	-0.123187095
93	0xbd5fb9d0	-0.054620564
94	0xbe7e644d	-0.24842949
95	0x3b4b1a5a	0.0030991049
96	0x3cc22536	0.023699384
97	0x3d9fb7b1	0.07798708
98	0x3cad1c72	0.021131728
99	0xbcf928ba	-0.030414928
100	0xbe7abd17	-0.24486195
101	0xbe5b3084	-0.21405226
102	0x3cd42f78	0.025901541
103	0x3d730041	0.059326414
104	0x3cf1d8c2	0.029522303
105	0x3d14758d	0.036244918
106	0x3e1ebabd	0.15500923
107	0xbdeb6431	-0.11493719
108	0x3cebcdf2	0.028784726
109	0xbe355a61	-0.17710258
110	0x3d84b1b2	0.06479205
111	0xbe6b30a7	-0.22967778
112	0xbd5d7cdc	-0.054074153
113	0x3d2cb947	0.04216888
114	0xbdb115b8	-0.08646721
115	0xbe4cf780	-0.20016289
116	0xbe822511	-0.25418904
117	0x3ccca8a3	0.024982756
118	0xbd05751b	-0.032582384
119	0xbe7227ac	-0.23647946
120	0xbd30f587	-0.043202903
121	0xbe03d8c2	-0.12875655
122	0xbc9618b3	-0.018322324
123	0xbe493af8	-0.19651401
124	0xbdb5ab63	-0.0887058
125	0xbcd40ec6	-0.02588595
126	0x38871ecb	6.443037e-05
127	0x3c9817fc	0.018566124
128	0xbe7582c1	-0.2397566
129	0x3de57362	0.11203648
130	0xbe165000	-0.14678955
131	0x3e2d55a5	0.16927202
132	0xbe06c6b4	-0.13161737
133	0x3d7c04d6	0.06152805
134	0xbe6f8db5	-0.233939
135	0xbe99696a	-0.29963237
136	0xbca7a677	-0.020465119
137	0x3bac4a05	0.0052578473
138	0x3e8fe538	0.28104568
139	0xbe4ccd61	-0.20000221
140	0xbb46f7b1	-0.0030360038
141	0x3e24a0ad	0.16076918
142	0xbe87b4bd	-0.2650508
143	0xbd49c13a	-0.04925654
144	0x3c07f2c3	0.008297625
145	0x3c4cf513	0.012509602
146	0xbe159bd4	-0.14610225
147	0xbcfed05b	-0.031105211
148	0xbdb51ab3	-0.08842983
149	0xbd8c0549	-0.068369456
150	0xbea36ae6	-0.31917495
151	0x3cd3d690	0.025859147
152	0xbd227c0b	-0.039669078
153	0xbc4446b6	-0.011979749
154	0xbca7a59c	-0.02046471
155	0xbd83484a	-0.064102724
156	0x3d517f9c	0.05114709
157	0x3cbc52d0	0.022988707
158	0xbd88d233	-0.06680717
159	0xbd847a2f	-0.06468617
160	0x3c28babf	0.01029843
161	0x3da40be5	0.08010081
162	0xbbd29c2f	-0.00642731
163	0x3d74d2ec	0.059771463
164	0xbe1f58c8	-0.15561211
165	0xbdb9f911	-0.09080709
166	0x3cb6ec08	0.022329345
167	0x3d871e0f	0.0659753
168	0x3c5ac67d	0.013352987
169	0xbe5e69a3	-0.21719985
170	0x3e328896	0.17434916
171	0xbe7d31df	-0.24726056
172	0xbc8dddd3	-0.017317688
173	0xbdd97d2d	-0.106195785
174	0x3e0334d6	0.12813124
175	0xbc0618b8	-0.008184604
176	0xbcd008a9	-0.025394754
177	0xbc9d19e1	-0.01917738
178	0x3da599fb	0.0808601
179	0xbe0c5dfe	-0.1370773
180	0xbe5574be	-0.20845315
181	0x3dd0064d	0.10157452
182	0xbd8d1d76	-0.06890385
183	0x3e2350ac	0.15948743
184	0xbd8cd517	-0.06876581
185	0xbd9e9f92	-0.07745279
186	0x3bba4277	0.0056841928
187	0x3dae5110	0.08511555
188	0xbeb3be48	-0.3510611
189	0xbe566c68	-0.20939791
190	0x3e2bd383	0.16779904
191	0xbeaf5075	-0.3424107
192	0xbd01c878	-0.031685323
193	0x3e388712	0.18020275
194	0xbde558af	-0.11198556
195	0xbd359903	-0.044335376
196	0xbdf196b7	-0.11796325
197	0xbe7f61fe	-0.24939725
198	0xbd8a47e6	-0.06751995
199	0xbefa1ab1	-0.4884849
200	0xbcd062cd	-0.025437737
201	0xbe8b044f	-0.27151725
202	0xbdc88445	-0.097908534
203	0xbe80465f	-0.2505369
204	0xbc7ce48e	-0.015435351
205	0xbe3dbacb	-0.18528287
206	0xbe2174e8	-0.15767252
207	0xbe456262	-0.19275811
208	0x3cb6cc13	0.022314107
209	0xbe4a2bcf	-0.19743274
210	0xbde8df56	-0.11370723
211	0x3d0ddab4	0.0346324
212	0xbe0243c4	-0.12721163
213	0xbe2073d9	-0.15669192
214	0xbd8903f0	-0.06690204
215	0xbe066186	-0.1312314
216	0xbe2a20cd	-0.16614075
217	0xbde519b9	-0.11186547
218	0xbdbfb357	-0.09360378
219	0xbd73f266	-0.05955734
220	0xbdb21979	-0.08696265
221	0xbdb13e0b	-0.08654412
222	0xbe946a41	-0.28987315
223	0x3b5f9bfe	0.0034120078
224	0x3cd85c90	0.026411325
225	0xbd8f3dee	-0.06994234
226	0xbc9f3393	-0.019433772
227	0xbbb6f6ab	-0.0055836043
228	0xbed3c363	-0.41360006
229	0xbe06b75d	-0.13155885
230	0x3cf64c9b	0.030065825
231	0xbc218f6a	-0.009860853
232	0xbdf7a1bf	-0.120913975
233	0x3d855d68	0.065119565
234	0xbd337055	-0.0438083
235	0xbeb1419c	-0.34620368
236	0x38c38d7a	9.324677e-05
237	0xbc4818dd	-0.012212959
238	0xbd7236cd	-0.059134293
239	0xbec14543	-0.37748155
240	0xbd764343	-0.06012274
241	0x3d0edf04	0.034880653
242	0xbe2dc1b3	-0.16968422
243	0x3d2f4e3a	0.042799212
244	0xbe0baff6	-0.13641343
245	0xbde0d377	-0.10977834
246	0xbda4d9f3	-0.08049383
247	0xbe327aec	-0.17429703
248	0x3b8a378b	0.004218047
249	0xbd3315b4	-0.04372187
250	0xbd89ee7e	-0.06734942
251	0xbe67acbf	-0.22624491
252	0xbeb71b21	-0.35762885
253	0xbcc3bde8	-0.023894265
254	0xbeafd07c	-0.34338748
255	0x3cc23bd1	0.023710163
